net.pkl (torch, 286959 bytes, 8 tensors)

weight f4 [128, 27]
000000 fc 45 3a bf 5e 45 b8 3e 67 fd 02 3f c0 03 54 bf
       -0.7276304 0.35990423 0.5116791 -0.8281822
000010 82 a4 35 3f 37 eb ac 3e 6d ea 27 bf 04 df cc 3e
       0.70954144 0.33773205 -0.6559208 0.40013897
000020 4e 38 bb 3e 02 c7 0e bf 27 36 16 3f ec e9 03 3e
       0.36566395 -0.5577241 0.5867638 0.12882203
000030 0d e2 b9 3e 58 b5 87 bd 11 58 34 3f ec 60 99 be
       0.36305276 -0.066263855 0.7044688 -0.29956758
000040 17 05 31 3f 96 00 bd bd 29 0c 32 bf f2 48 8c 3e
       0.6914839 -0.092286274 -0.69549805 0.27399403
000050 a1 91 c6 3e 4d bd 00 bf 20 de e6 3e 04 4d 48 3e
       0.3878298 -0.5028885 0.45091343 0.19560629
000060 f6 1b 37 bf 85 7c ef 3e 1b 19 64 3e df aa df bd
       -0.7152704 0.46774688 0.22275202 -0.10921263
000070 ae d0 1c 3f ce 16 7a bd 7b 8c 7f be 7d f4 b8 be
       0.6125592 -0.061056904 -0.24955933 -0.3612403
000080 5c 46 56 3e 84 e9 a1 3d 82 28 ae 3d ce 10 3f 3f
       0.20925277 0.07905868 0.0850382 0.74635017
000090 d1 79 97 bf 9f a7 a9 3e 81 e4 26 bf af 90 96 bd
       -1.183405 0.33135697 -0.6519242 -0.07351815
0000a0 65 bc 85 3d 7f 50 3e 3f c2 8b b3 bd cd d4 08 3d
       0.06530074 0.7434158 -0.08766891 0.033406068
0000b0 3a 32 18 3f b4 7b ef 3c 14 c2 99 3e f5 29 07 bf
       0.5945164 0.029233791 0.30030882 -0.52798396
0000c0 45 8b 8f be ef 7c 96 be 24 eb b5 3e d4 0d 72 bd
       -0.28035942 -0.29392192 0.3553096 -0.05909522
0000d0 86 2d 2e bf 2e 1d f4 3e a3 4c e5 be f4 41 b9 bf
       -0.68038213 0.47678512 -0.44785032 -1.4473252
0000e0 8c 24 08 3f 2e 1d 08 3e 0e 1b 32 bf 84 95 85 3d
       0.53180766 0.13292381 -0.6957253 0.065226585
0000f0 a0 8b 5d bd 0a a0 dc bd 60 ab 81 be 87 98 7c be
       -0.054088235 -0.107727125 -0.2532606 -0.2466756
000100 3e 13 61 3f b3 0b 86 be ab 9d 19 3f 62 3a 4b be
       0.87919986 -0.261808 0.6000621 -0.1984649
000110 f5 11 74 3e 9f e4 a9 3d 53 a9 11 3f 10 43 8c bf
       0.23834975 0.08295559 0.56898993 -1.0957966
000120 e9 a3 88 3e ec dd 1a bf 8a 8e 9f bd 4d 8f f4 3d
       0.26687554 -0.60494876 -0.07790859 0.11941395
000130 2f 70 42 bf 13 c4 50 3e a2 64 e6 3e 39 95 69 3d
       -0.7595243 0.20387296 0.44998652 0.057027075
000140 7d 28 72 bd 6e 81 34 be 82 16 60 bf ee 87 f4 3e
       -0.059120644 -0.17627499 -0.87534344 0.47759956
000150 94 02 85 be c5 8f 32 be ea 64 1d 3f 0a 1d 8e 3d
       -0.2597853 -0.17437656 0.6148211 0.069391325
000160 c5 e8 50 be 48 e3 25 3f 5c ba 82 3e e0 f1 27 be
       -0.20401295 0.6479993 0.25532806 -0.16400862
000170 f5 41 e6 bf e8 41 93 bf e7 26 2e 3e 14 7c 82 bf
       -1.7988878 -1.1504488 0.17007028 -1.0194116
000180 b6 e5 12 3d b1 92 09 3f 5c 30 03 c0 2d 30 6d be
       0.0358636 0.5373946 -2.0498266 -0.23162909
000190 21 94 2f bd 1f 81 81 3b 42 df ca 3d cf d6 2b 3e
       -0.042865876 0.00395216 0.09905864 0.16781162
0001a0 33 f5 4d 3e ff de dc bd 49 82 e2 bd 7a 8a ec bd
       0.20113067 -0.10784721 -0.11060006 -0.1154985
0001b0 94 ef 89 3e 04 ce a0 3c 42 39 20 bf 54 a1 a7 3a
       0.26940596 0.019629486 -0.6258737 0.0012789168
0001c0 97 b1 1f bf 49 4c ee 3c 67 d7 cc be 3b 84 69 bd
       -0.62380356 0.02908911 -0.4000809 -0.05701087
0001d0 3f 86 90 bd 1f ef 70 3e 80 19 fb be 02 9a 44 bf
       -0.070568554 0.23528717 -0.49042892 -0.767975
0001e0 72 96 1a 3f bc d6 70 bc 1d ba fa be 34 90 30 bf
       0.6038581 -0.014699634 -0.48970118 -0.68970037
0001f0 71 02 bd 3e fe ce cc bc 9c d1 d7 3d 69 62 b3 be
       0.36915925 -0.025001045 0.10538027 -0.35036018
000200 4c 74 86 3e 89 b3 fc 3d 71 d7 c1 be 5f 9e cb 3e
       0.26260602 0.12338931 -0.3785968 0.39769265
000210 88 da cb be b1 7b 2d 3e 04 f2 44 3e 2f 72 ae 3f
       -0.39815164 0.16941716 0.19232947 1.3628596
000220 0d 3c b6 3e 57 93 96 3e d8 3f 91 3f f0 06 b0 3e
       0.3559269 0.29409286 1.1347609 0.34380293
000230 a5 f4 78 3f dc e0 8f 3f 7a d2 51 3f 83 08 75 3f
       0.972483 1.1240497 0.81961787 0.9571611
000240 b1 91 80 3f 7c 28 4c be 0e 52 a2 3f a2 94 13 40
       1.0044461 -0.19937319 1.2681291 2.3059468
000250 3c f4 6b 3f c8 44 7d bf ac 27 b3 3f fd c2 98 3f
       0.9216955 -0.98933077 1.3996482 1.1934506
000260 08 f8 ec 3e b2 ed 76 3f cd 95 6b 3f 11 de 24 3f
       0.46282983 0.96456444 0.9202545 0.64401346
000270 a1 f4 b7 3f 7f 80 b7 3e 81 80 5a 3f e1 f8 33 3f
       1.437153 0.35840222 0.8535233 0.70301634
000280 b1 20 6f 3f e8 e8 7f 3f e3 ab 74 3d dc 24 b2 bd
       0.9340926 0.9996476 0.059734236 -0.086984366
000290 bf 73 27 bf ec 7c 91 bd ba c6 85 3e 2a 1f d7 bf
       -0.6541099 -0.07103905 0.2612818 -1.6806386
0002a0 76 fd f9 be c6 d0 e3 be 36 09 a5 3e 55 b4 b7 3c
       -0.48826188 -0.4449522 0.3223359 0.022424856
0002b0 ae a1 02 3f a4 f1 d4 be 74 89 02 bf 15 cc 07 3e
       0.51027954 -0.41590607 -0.50990987 0.13261445
0002c0 15 55 52 bf 46 28 b6 3e 34 6e 6f bd a8 e3 f2 3d
       -0.82161075 0.355776 -0.058454707 0.11859828
0002d0 4b ca bf bc 7c 99 dd bd be 2b 12 be 8f 08 99 be
       -0.02341189 -0.108202904 -0.14274499 -0.29889342
0002e0 dd e9 48 3f 81 30 6f bf 36 00 60 bf df 5d ab bf
       0.7848185 -0.93433386 -0.8750032 -1.3388022
0002f0 85 a7 27 3f 5d 1e 15 bf 08 41 ef 3e b5 c3 9d 3b
       0.6548999 -0.58249456 0.46729302 0.00481459
000300 3b 79 ef be 18 31 a5 bf 22 f1 c4 3e 1c 24 4b bf
       -0.4677218 -1.2905607 0.3846522 -0.79351974
000310 28 f9 be 3e b4 1a 50 bf 3f c5 cf be 26 59 97 be
       0.37299466 -0.81290746 -0.40580174 -0.29560202
000320 cb dd 11 3f b9 7c 43 bf eb d9 32 3d 21 3c 20 3e
       0.56979054 -0.76362187 0.043664854 0.15647937
000330 d3 f5 15 be c9 6a d7 3d cc d7 0d 3f c3 f0 8d be
       -0.14644556 0.105184145 0.55407405 -0.2772275
000340 b0 a0 7c bf fd d1 7a 3e aa 16 1e bf 80 cf 0c 3f
       -0.9868269 0.24494167 -0.6175333 0.5500412
000350 99 f0 6b be 12 41 74 bf b7 94 49 3d a2 90 db 3e
       -0.23041 -0.9541179 0.04921409 0.42883784
000360 07 99 b2 3f bf 43 00 40 f9 59 22 40 70 bb eb 3f
       1.395295 2.004135 2.5367415 1.8416576
000370 0f eb eb 3f 68 4e 12 40 b4 86 b4 3f 0d 8e 07 40
       1.8431109 2.2860355 1.4103608 2.118045
000380 d2 0f 08 40 4e ee e6 3f 51 f1 27 40 bf 51 07 40
       2.1259656 1.8041475 2.6241038 2.1143644
000390 92 b9 45 3f c9 83 3a 40 97 dd 08 40 96 65 e5 3f
       0.7723628 2.9142935 2.1385248 1.7921627
0003a0 12 91 f2 3f e3 2a 07 40 03 36 fc 3f d8 24 00 40
       1.8950522 2.1119926 1.9703983 2.0022488
0003b0 9b da f0 3f 21 71 ff 3f 85 3a 94 3f 5d a5 d5 3f
       1.8816713 1.9956399 1.1580359 1.669109
0003c0 26 47 85 3f ba 67 1c 40 4d b2 15 40 30 ea b4 3b
       1.0412338 2.443831 2.3390076 0.0055210814
0003d0 f5 03 26 3f 67 fa 0d c0 80 8b 8a be 50 6f c7 3e
       0.6484979 -2.2184083 -0.27059555 0.38952112
0003e0 fe c8 33 c0 ad 8a 4a 3c 8a ac e9 3e be 77 e1 bf
       -2.8091426 0.012362164 0.4563945 -1.7614667
0003f0 b0 9b a6 3c 82 22 7c 3e ff 45 a6 bf 46 bd 22 be
       0.02033791 0.24622539 -1.2990111 -0.15892515

bias f4 [128]
000000 5b bb 5f 3f 28 43 90 bf cd 74 0d bf 82 8f fb be
       0.87395257 -1.1270494 -0.5525635 -0.49132925
000010 0a a3 5a bd 52 66 bd 3f ee 6e 16 bf 9f 62 9f be
       -0.053378142 1.4796851 -0.58763015 -0.3112993
000020 ee 00 8f 40 03 e8 65 be 13 00 da be c8 74 06 bf
       4.4688635 -0.22451787 -0.42578182 -0.52521944
000030 33 ed 81 bf f2 92 e9 be bc 08 ba bf a8 41 9c be
       -1.0150512 -0.45619923 -1.4533916 -0.30518842
000040 00 99 48 bf a2 ac 8b bf d8 b9 94 bf 04 6a f8 be
       -0.7835846 -1.0912058 -1.1619215 -0.48518384
000050 19 9d 96 bf 3c 74 62 bf c0 f3 1f bf 3c 6f fa be
       -1.1766692 -0.8845861 -0.6248131 -0.4891299
000060 5b 88 58 bf e1 7e 63 bf 5d cc d6 be 12 40 b0 bf
       -0.8458306 -0.88865477 -0.41952792 -1.3769553
000070 fc c7 8a bf 4e fc 14 bf c3 16 a1 bf 50 c2 36 bf
       -1.084228 -0.58197486 -1.2585071 -0.7139025
000080 a8 ac 7a bf c4 90 23 bf 57 05 c8 be 4a 85 7c bf
       -0.979197 -0.6389277 -0.39066574 -0.9864088
000090 92 b5 8d bf 1b b4 74 bf 61 cd e7 be 02 4a 39 bf
       -1.1071036 -0.9558732 -0.4527388 -0.7237855
0000a0 92 97 72 bf 8b 93 8d bf 03 12 87 bf b4 6f ca bf
       -0.9476253 -1.1060652 -1.0552372 -1.5815339
0000b0 79 c8 6c bf 81 13 09 bf d1 df fc be c3 e2 94 be
       -0.92493397 -0.53545386 -0.49389508 -0.29079255
0000c0 32 fb f9 bd 36 27 10 bf d0 e8 27 bf 4a 4d 82 bf
       -0.12206115 -0.5630983 -0.6558962 -1.0179837
0000d0 ed 93 bc bf 37 ed e1 be c2 ab 2f 3f 12 0a 8f bf
       -1.4732643 -0.44126293 0.68621457 -1.1174948
0000e0 2d d8 37 bf 8a 8e e0 3f 9b 36 e4 bc a3 7f 8c bf
       -0.71814233 1.75435 -0.02785807 -1.0976452
0000f0 87 c5 b8 bd 18 1e 78 bf 1b ee e2 be dc 13 97 be
       -0.0902205 -0.9692092 -0.44322285 -0.2950734
000100 4b a2 5d be 00 74 16 bd 07 04 c3 bb 29 06 c1 be
       -0.21643941 -0.03673172 -0.005951408 -0.37700012
000110 28 59 20 bf 9f 93 16 bf e0 59 01 bd 62 cd ac be
       -0.6263604 -0.58819 -0.031579852 -0.33750445
000120 58 95 21 be 72 b6 6b bf 7a 1a 48 be 68 40 74 bf
       -0.15779626 -0.92075264 -0.1954135 -0.95410776
000130 bb a1 47 3e 6f d7 af bf 6e 3a 40 3e 5a 8c f3 be
       0.19495289 -1.373762 0.18772289 -0.47568017
000140 1a 23 ca bf 18 49 d0 3e 4e f1 4e bf 8e 9c b7 bf
       -1.5791962 0.40680766 -0.8083695 -1.4344652
000150 b0 7c b0 be 59 37 b4 be 00 7d 66 bf 6d 92 a5 be
       -0.3447013 -0.35198477 -0.90034485 -0.32338277
000160 eb 3e 8c bf a8 db 68 bf f2 3a 16 bf 37 ee b5 bf
       -1.0956701 -0.9096017 -0.58683693 -1.4213322
000170 ae 78 0e bf 3a 95 9b bf 77 c4 2e be ab c7 9a bf
       -0.5565289 -1.2154915 -0.17067133 -1.2092184
000180 0e 38 2c be a3 78 ac bf 0c c8 77 be e1 50 1b bf
       -0.16818258 -1.3474315 -0.24197406 -0.60670286
000190 ca 30 94 bf ef 98 9c bf 42 1d 87 bf 15 22 d8 bf
       -1.1577389 -1.2234172 -1.0555804 -1.6885401
0001a0 4f 37 cf 3c 41 bf 1e bf a2 4b e5 be df fa 94 bf
       0.025294928 -0.6201058 -0.44784266 -1.163906
0001b0 9b 2e 77 be 2e 2e 26 bf c1 10 09 bf 3a 5b 35 bf
       -0.24138872 -0.64914215 -0.5354119 -0.70842326
0001c0 54 7f 2f bf 08 8a 8d bf 14 5c 64 bf 38 06 83 be
       -0.6855366 -1.1057749 -0.89203 -0.25590682
0001d0 39 86 28 bf 7f 10 af bf 4b 8d 00 bf 0d a3 16 3e
       -0.6582981 -1.3676909 -0.50215596 0.14710636
0001e0 1b f6 3e bf 66 76 c3 be a7 2f 06 bf df 1d 19 bf
       -0.7459428 -0.38176268 -0.5241646 -0.59811205
0001f0 09 b0 92 be 00 e6 ba bf 4c 9a 1a 3d 4c 51 0c bf
       -0.2864993 -1.460144 0.037744805 -0.5481155

weight f4 [256, 128]
000000 86 99 a5 3e 5c 20 b7 bf 82 46 c9 3e 67 46 02 40
       0.32343692 -1.430675 0.39311606 2.035547
000010 83 8a 08 3f 1b e5 2e 3d 4c 37 c7 3e c5 f4 1e 40
       0.5333635 0.04269896 0.38909376 2.4836895
000020 a0 73 a7 3e a1 c0 1d bf a2 8a 28 be c9 ad b0 bf
       0.32705402 -0.61622053 -0.16459134 -1.3803035
000030 62 79 5f bf 49 d6 82 be 19 12 55 be 1a 5b 7d 3f
       -0.8729459 -0.25554112 -0.20807685 0.98967135
000040 90 bb 18 bf f1 0f 68 bf 6f 3c 43 bf e4 69 5f 3e
       -0.596612 -0.90649325 -0.7626409 0.21817738
000050 31 be 12 bf 9f 47 74 bf 2d 9c 6c bf 12 04 ad 3e
       -0.5732146 -0.95421785 -0.92425805 0.33792168
000060 c3 0a cd bf 28 bc 94 3f b5 40 b3 bd f2 91 9c bf
       -1.6018909 1.1619921 -0.08752576 -1.2232039
000070 b0 9b e8 3d 87 73 26 3f 7b c9 39 bf 88 87 8a 3f
       0.1135782 0.6502003 -0.7257306 1.0822611
000080 5e 0b 83 c0 29 c6 42 3f f0 56 26 bf cb 31 b1 bf
       -4.0951376 0.7608362 -0.64976406 -1.3843321
000090 e9 e8 af bf 3b 35 ad 3f e1 0b 53 3e bb 58 e7 3e
       -1.3742954 1.353187 0.2061 0.45184883
0000a0 db 5f a2 bf b0 06 7e bf 9a 3a 9e bb 2c 82 c4 be
       -1.2685503 -0.99228954 -0.004828763 -0.38380563
0000b0 dd 87 ed bf 5a 23 4d 3e ed 16 ed be a3 f9 d9 be
       -1.8557087 0.20033017 -0.46306553 -0.4257327
0000c0 f6 71 0c bf 2b d4 e3 3f 19 c6 e5 bf 02 97 39 c0
       -0.5486139 1.7799124 -1.795108 -2.8998418
0000d0 20 1c 02 c0 e8 a8 5a bf 66 e6 d4 3e a0 13 61 3e
       -2.0329666 -0.8541398 0.4158203 0.21980143
0000e0 96 cd ac bf aa 7c 88 bf 6d 97 25 bf 52 a2 94 bf
       -1.350024 -1.0663044 -0.6468418 -1.1612036
0000f0 ed 3e aa bf 9a ac f6 bd f8 51 42 3d 1e 6d 00 40
       -1.3300453 -0.1204464 0.047441453 2.00666
000100 55 3d 61 be 90 10 90 3e 56 e0 4c bc d4 73 40 bf
       -0.21996053 0.28137636 -0.012504658 -0.7517674
000110 b8 41 ee bf 9c bc 16 be 63 ef 7b bf 12 3c 7c c0
       -1.8613806 -0.14720386 -0.9841215 -3.9411664
000120 6f 9e 0d 3f 35 c4 cc be 1e 1e ec be 11 58 04 3f
       0.55319875 -0.39993444 -0.46116728 0.5169688
000130 08 e1 6a bc 0b 9d f2 3d 20 94 b3 3e 75 e9 f3 bf
       -0.014335878 0.1184636 0.35073948 -1.905562
000140 7b ed 6b 3f 59 0e 8a 3f 5b 8a 2e bf 71 78 02 3f
       0.9215924 1.0785629 -0.68179864 0.5096503
000150 a3 c0 6f be cb f4 5a 3f 07 ed f7 3e 89 78 9c bf
       -0.23413329 0.85529774 0.48423025 -1.2224284
000160 29 97 65 be 5c 9c 84 3e dc 19 82 be 06 57 07 3f
       -0.22420944 0.25900543 -0.25410354 0.5286716
000170 4e 5a 2e 3d fa 6e 1e 3f 49 88 83 be 99 47 68 bf
       0.04256659 0.61888087 -0.25689915 -0.9073425
000180 dc de 51 be 67 83 4a bf 99 3b 91 3f e5 a8 6d bf
       -0.2049517 -0.79106754 1.1346313 -0.9283584
000190 99 cf 61 3f d9 b8 93 3f 3a 23 19 bf 81 d9 ed be
       0.88207394 1.1540786 -0.59819376 -0.46455005
0001a0 64 be fc bc 3f 8c db be 40 4b 63 bf fa 54 1e c0
       -0.030852504 -0.42880437 -0.887867 -2.4739366
0001b0 8b d7 b2 3d a5 eb 03 3e 44 c6 99 bd 9b f2 35 3f
       0.08732518 0.1288286 -0.07508519 0.7107331
0001c0 17 93 27 3f 69 f2 a8 bf 35 f6 ee bf c9 38 c7 3c
       0.65458816 -1.3198978 -1.8668886 0.02431907
0001d0 db 4e 06 c0 8c 17 0d bf 03 44 0d bf 06 7b bb bf
       -2.098563 -0.55114055 -0.551819 -1.4646919
0001e0 e6 56 ab 3f 98 a7 ab 3e 54 8d 67 be 83 15 d2 3e
       1.3385894 0.335263 -0.22612506 0.41032037
0001f0 2a 39 6c 3e 44 70 56 be d4 c9 cd be 24 5b ab be
       0.23068681 -0.20941263 -0.40193045 -0.33467972
000200 66 cb dd be 0d 57 ac 3c bd e7 1a 3f 2f 9b 9a 3f
       -0.43319243 0.021037603 0.60509855 1.2078608
000210 66 61 ac be f4 86 95 bd 97 85 ab 3f 28 7c 3b 3b
       -0.3366806 -0.07301131 1.3400143 0.0028607938
000220 b3 01 3d bf bb 64 92 3e 6d b8 2c bf 8a c0 d2 be
       -0.7383072 0.28592476 -0.6746891 -0.4116252
000230 38 f1 16 3f 25 e8 e4 bd ad b3 98 3f 9f ce d6 3d
       0.5896182 -0.111770906 1.1929833 0.104886286
000240 94 ad 46 3f 8f 1a 89 3e 59 8f 93 3f b2 72 ea bc
       0.7760861 0.26778075 1.1528121 -0.028619144
000250 a4 03 0f bd 1d 80 2b 3f 7b 0b 69 3e f8 3f 92 3e
       -0.03491558 0.6699236 0.22758286 0.2856443
000260 d0 ab 78 3e 9b c5 ae 3f e3 03 1d 3d 93 08 50 3d
       0.24284291 1.3654054 0.038333785 0.050789427
000270 22 a8 48 3f ab 25 64 3f 67 a5 8b 3f f0 9e 88 bd
       0.7838155 0.89119977 1.0909852 -0.0667094
000280 60 62 eb 3e ee c4 f0 be 91 32 eb 3e d6 16 bf 3c
       0.45973492 -0.47025245 0.45937017 0.023326319
000290 b0 12 cf 3f 83 d8 c5 3f 0f b5 d2 3e 51 f8 a8 3e
       1.6177578 1.5456699 0.41153762 0.3300195
0002a0 4d 3c 07 3f 5c a1 16 3f 1e c2 9d 3f 0e f4 12 3f
       0.52826387 0.58839965 1.2324865 0.5740365
0002b0 9b ee c9 3e 4a 4b 49 3f 52 c3 d3 3e dc 9d 43 3f
       0.39439854 0.78630507 0.41359955 0.7641275
0002c0 fe 83 7a 3e 9f ea ab 3e 43 23 f9 3d 0a 3d c7 be
       0.24464414 0.3357744 0.12164929 -0.38913757
0002d0 3c a9 44 3f 22 2c 2a 3f 27 b6 fa 3e 9a db 15 3e
       0.7682073 0.6647359 0.48967096 0.14634553
0002e0 51 cf ea be c4 b6 19 be 07 6c fa 3e 38 78 5c be
       -0.45861295 -0.15011126 0.48910543 -0.21530235
0002f0 94 62 88 3f 14 87 85 3f 18 97 4f 3e e2 a4 cd 3c
       1.0655084 1.0431848 0.20272481 0.025103036
000300 ef 5b 31 3f 93 34 66 3d 56 48 3e 3d 7b 3d 8c 3f
       0.69280905 0.056202482 0.046455704 1.0956262
000310 2e 78 8b 3e 88 bb af 3f d6 14 d5 3e e8 cc 79 3e
       0.27240127 1.3729105 0.4161746 0.24394572
000320 4f e5 db bd d6 3b 15 3e 2b 28 bb 3b bc 75 2c 3f
       -0.107370965 0.14573607 0.0057115755 0.6736715
000330 28 7e db be cb 3c c4 3f d1 f8 10 bf 8a ae aa be
       -0.42869687 1.5331053 -0.56629664 -0.33336288
000340 35 eb 11 be 4a 43 59 3f f2 77 90 3c 60 92 53 3f
       -0.1424988 0.848683 0.01763532 0.82645226
000350 12 35 6d 3f 60 bb 99 3f d2 b9 fc 3e 63 c3 01 3f
       0.92659104 1.2010307 0.4936052 0.5068876
000360 1a 8f 5d 3e f9 a9 36 3f b3 21 c4 3f 0f 11 e9 be
       0.2163662 0.7135311 1.5322784 -0.45520827
000370 30 37 b3 3f 35 af 1e 3f d9 b2 44 3e d8 63 14 3f
       1.4001217 0.61986095 0.1920885 0.5796485
000380 d4 ac 23 3f 71 6d 08 3e 14 e6 0c 3f bb a6 8e 3e
       0.6393559 0.13322999 0.5503857 0.2786158
000390 9f 96 b6 3f eb bc 51 3f 69 b3 48 3f 2a 83 fe 3f
       1.4264716 0.8192889 0.7839876 1.9883778
0003a0 fe b1 44 3e 55 63 20 3f c6 5b 26 bf 49 c4 e2 3c
       0.19208524 0.6265157 -0.64983785 0.027681487
0003b0 ec 3f 8a bd bb 62 fd be 9d 38 00 be 13 77 d7 3e
       -0.067504734 -0.49489388 -0.12521596 0.42083034
0003c0 7f 3a 86 3f 56 b8 f9 3e 5a fe 4c 3f 1a a7 2e be
       1.0486602 0.4877345 0.8007561 -0.17055932
0003d0 a6 bb 6f 3f 0c 77 ce 3f 92 ec 12 be 81 26 25 be
       0.93645704 1.613008 -0.14348057 -0.1612797
0003e0 6a 4b 2a 3f da 1d 7a 3e 2d b6 37 3e 2c f2 3f be
       0.6652132 0.2442545 0.17940588 -0.18744725
0003f0 67 b3 93 3f db b3 b1 be ed 8d 75 be 2b 84 e7 be
       1.1539124 -0.3470753 -0.23979922 -0.45218024

bias f4 [256]
000000 3c 6e bf 3e 34 ff 82 bf ce 54 0a bf a8 a4 41 bf
       0.3738879 -1.0234132 -0.5403565 -0.7564187
000010 ef 10 03 bf 56 f6 a5 bf 03 e1 a2 be 05 7e a3 bf
       -0.51197714 -1.2965801 -0.31812295 -1.2772833
000020 45 78 93 be e6 32 0f bf b8 62 3c 3f cc 52 76 3e
       -0.28802696 -0.5593704 0.7358813 0.24055022
000030 8c 1c 5d bf 7e ac 08 bf e2 d7 39 be 4d 19 6e bf
       -0.86371684 -0.533882 -0.18148759 -0.93007356
000040 f5 27 98 bf 4f f0 94 bf a2 3d 71 bf d9 db 3e bf
       -1.1887194 -1.1635836 -0.9423467 -0.7455421
000050 68 5f 8c be 2e 43 be be 9b d7 12 bf 68 4b c9 be
       -0.2741654 -0.3716063 -0.5736024 -0.39315343
000060 a5 05 b7 be 07 2b 4a be 50 b1 1a bf 37 6b be be
       -0.35746494 -0.19742976 -0.6042681 -0.37191173
000070 95 82 9a be 64 4e 42 be c2 99 96 bf 3c e1 7b bf
       -0.3017775 -0.18975216 -1.1765673 -0.98390555
000080 74 37 4f bf ee 55 07 bf 87 b2 7b bf fc 95 7e bf
       -0.8094399 -0.52865493 -0.98319286 -0.9944761
000090 b0 ae a8 be 2b 25 ca 3e 02 05 61 bf 9d a5 3e bf
       -0.32945776 0.39481482 -0.87898266 -0.74471456
0000a0 da 2b a6 3e 8b ff b0 bd 74 76 2d bf e5 ac 5e bf
       0.3245533 -0.08642491 -0.6775887 -0.86982566
0000b0 12 c2 ff bd 2b e9 65 bf 97 1a 8a be ca 86 46 bf
       -0.12488188 -0.8980891 -0.2697341 -0.7754942
0000c0 aa 7b 91 be 5b 20 9f bf f5 28 42 bf 75 eb fe bc
       -0.2841466 -1.2431749 -0.75843745 -0.031118134
0000d0 51 60 c2 be e7 e2 6c 3e c6 8e 9f bf 46 38 64 be
       -0.3796411 0.23133431 -1.2465446 -0.22287092
0000e0 be 45 99 be 80 fa 41 be a2 da a3 bf f2 7c 02 bf
       -0.29936022 -0.18943214 -1.2801096 -0.509719
0000f0 72 95 0a 3e 75 2a bb be 1e ec 98 3e d5 d2 55 bf
       0.13533571 -0.3655583 0.29867643 -0.8352483
000100 07 fc 46 bf 79 c2 e4 bd bf 3b e4 3d 5b 4c 17 3f
       -0.77728313 -0.11169905 0.11144208 0.59100884
000110 cb e8 5c be 1d f1 a6 bf 39 a0 03 be 6a f9 23 bf
       -0.21573178 -1.3042332 -0.12854089 -0.6405245
000120 2f 6d 42 bf 0c 82 22 bf f2 9e ed 3c 73 05 01 bf
       -0.7594785 -0.63479686 0.029006455 -0.5039894
000130 23 b0 5a bf 28 c0 af be 8a 82 b9 3e 69 36 c3 be
       -0.85425013 -0.3432629 0.36232406 -0.3812745
000140 41 c9 60 be 90 0b cb be 27 11 3b be 18 d4 68 bf
       -0.21951772 -0.3965726 -0.18268262 -0.9094863
000150 fb 7e af bd 02 4e 64 bf 6c 9d 23 bf dc 16 29 bf
       -0.085691415 -0.8918153 -0.6391208 -0.66050506
000160 cc 51 3a 3e 74 93 e0 3d 40 a5 3d bf 52 9b 3b bf
       0.18195266 0.109656245 -0.74080276 -0.73283875
000170 ca c4 c7 bf ac 7f 44 bf 0b 8a 0b bf 85 02 23 bf
       -1.560693 -0.7675731 -0.5450751 -0.6367572
000180 d5 33 76 be 66 95 d7 bd 19 e5 94 bf 13 27 0c 3f
       -0.2404321 -0.10526542 -1.1632415 0.5474712
000190 b8 05 a9 bf 2d 1b 18 be 52 a8 95 bf 38 db aa 3d
       -1.320487 -0.14854117 -1.1691992 0.08342594
0001a0 a5 e6 d2 bd e0 57 0e 3d 69 c2 29 bf ef 46 63 3e
       -0.10297898 0.034751773 -0.6631227 0.22195028
0001b0 b1 50 15 bf 6d 78 32 bf b7 2e e1 be 3e 9b a7 bf
       -0.5832625 -0.69715005 -0.43980953 -1.3094251
0001c0 86 05 24 be 5c d7 6e bf 1c 1f d3 be ac 71 26 bf
       -0.16017732 -0.9329736 -0.41234672 -0.650172
0001d0 c4 f5 fc be 05 8c 65 bf dc 55 32 bf 6d bb a1 be
       -0.49406254 -0.8966678 -0.6966226 -0.31588307
0001e0 c9 e6 c2 bd 94 cc 34 bf 12 77 6f be d3 c7 82 3e
       -0.09516675 -0.7062466 -0.23385265 0.2554308
0001f0 a6 11 70 bf da 5d 5c bf d0 a3 7c bf 85 d5 e1 be
       -0.9377693 -0.86080706 -0.9868746 -0.44108215
000200 7e c3 65 bf 51 b9 88 bf dd 5a 62 bf 63 76 79 bd
       -0.8975142 -1.0681554 -0.88419896 -0.060903918
000210 ff 1d c3 be c2 e9 88 be d3 48 d6 be 24 79 52 bf
       -0.38108823 -0.26740843 -0.41852435 -0.82216096
000220 fb da 81 3e b0 19 5e bf 99 db 1b 3f ba 9e 51 bf
       0.2536238 -0.86757946 0.60881954 -0.8188282
000230 c7 31 83 bf bb 8f 60 bf 9d da e0 be cd 0a 58 bf
       -1.0249566 -0.87719315 -0.4391679 -0.8439148
000240 d5 29 d8 be 78 a9 54 bf 61 cc 09 bf 9d 8f 3b bf
       -0.42219415 -0.8307109 -0.5382748 -0.7326601
000250 a3 ed d2 bd 79 ce ac 3e b1 da c7 3e 60 54 d2 be
       -0.10299232 0.33751276 0.39034036 -0.41079998
000260 41 59 86 3e aa 38 d7 be 2b 8b 3c bf fb 88 25 bf
       0.2623997 -0.4203542 -0.73649853 -0.6466214
000270 6a 10 5e bf 32 c1 a6 bf 44 03 bd bf ee a0 45 be
       -0.86743796 -1.3027709 -1.4766622 -0.19299671
000280 22 f1 7d be 34 7d 0d bf 70 2b 77 bf 0b ee 09 3f
       -0.24799016 -0.5526917 -0.96550655 0.5387885
000290 95 95 04 be 79 a5 e2 be 03 c7 71 bd 90 af f6 be
       -0.12947686 -0.4426687 -0.059027683 -0.4818082
0002a0 d5 0b 70 bf 3d a7 2f bf a7 85 ee 3d 7f 3e 44 bf
       -0.93768054 -0.6861456 0.11646586 -0.7665786
0002b0 90 a7 b6 3f 4e 64 9a bf 16 9a 60 bf a4 cb 43 bf
       1.4269886 -1.206186 -0.87735116 -0.76482606
0002c0 fc ab 98 be cc a6 26 bf a2 bb 35 bf 58 bb d9 be
       -0.29818714 -0.6509826 -0.7098943 -0.42525744
0002d0 dd 22 21 be a3 8e d7 be 91 68 ec be dc 36 65 bf
       -0.15735956 -0.4210101 -0.46173528 -0.89536834
0002e0 1e cb 8e bf e5 48 ec be de aa 47 bd 85 5e 15 bf
       -1.1155736 -0.46149364 -0.048746936 -0.5834735
0002f0 89 77 cb 3c c8 3e 98 3e a0 f4 bb 3d f5 b2 95 bd
       0.024837272 0.29735398 0.09177518 -0.07309524
000300 6f fc 98 bf d4 15 26 bf be 1a 07 bf 87 3e 2b bf
       -1.1952037 -0.6487706 -0.5277518 -0.66892284
000310 6c cd 8f bf 6b 56 ed 3d c1 20 87 bf 24 fc 32 bf
       -1.1234565 0.115887485 -1.0556871 -0.69915986
000320 ce 6f 20 bf ab fe 5c bf d9 96 42 bf ce 70 76 3f
       -0.626706 -0.8632609 -0.76011425 0.96265876
000330 66 8a 34 bf 19 84 bf be 05 e7 54 be c4 02 9a bf
       -0.7052368 -0.3740547 -0.20791252 -1.2032094
000340 ad 20 63 bf a6 95 ad bd a6 cc 59 3c 3e 9d 6c 3e
       -0.88721734 -0.08475809 0.013293421 0.23106858
000350 e9 e5 13 bf f3 1c 32 bf 04 2e 52 3e a8 83 ac 3e
       -0.5777269 -0.69575423 0.20525366 0.33694196
000360 34 2f a7 3e 4d d4 08 bd 23 36 55 be 9c 28 1e bf
       0.326532 -0.03340559 -0.20821433 -0.61780715
000370 1d e3 96 bf f9 38 ba be 89 9c 7b bf d3 03 f5 be
       -1.178806 -0.36371592 -0.9828573 -0.4785448
000380 a8 e2 19 bf f9 e8 e3 be 32 f9 ef be ed 68 94 bf
       -0.60111475 -0.44513682 -0.46869808 -1.1594521
000390 e5 ab f2 3e b3 0d 98 bf 40 47 80 bf 48 58 a4 bf
       0.4739677 -1.1879181 -1.0021744 -1.2839441
0003a0 e6 3c 2c bf 23 eb bf bf 49 1c 14 bf 5b 56 6f bf
       -0.67280424 -1.4993633 -0.5785566 -0.93491143
0003b0 1a 0f fd 3f 9b 4b 16 be d4 0e d8 be 9d 66 96 bf
       1.9770234 -0.14677279 -0.42198813 -1.1750065
0003c0 1e 92 3b bf 7a 91 69 be 0f 68 6e bf 01 97 2c bf
       -0.7326983 -0.22809401 -0.9312753 -0.67417914
0003d0 24 af a2 be 48 4e 89 bf 45 f3 6f bf e0 66 f1 3e
       -0.31774247 -1.0727015 -0.93730575 0.471488
0003e0 24 1c 2e bf 5d eb df be cb 8f 01 bf bf 13 90 bf
       -0.6801169 -0.43734255 -0.50610036 -1.1256026
0003f0 bb ea cf 3e ab 29 60 bf ee 62 89 3e b7 a5 c0 be
       0.40608773 -0.8756358 0.2683329 -0.3762643

weight f4 [128, 256]
000000 ad 08 2f 3f 78 05 8a bf a5 81 30 be 8a a5 3e bf
       0.68372613 -1.0782919 -0.17236955 -0.7447134
000010 eb 3f 81 bf 94 20 2b bc 82 50 a3 be cd b7 2a bf
       -1.0097631 -0.010444779 -0.3189736 -0.6668671
000020 ba dd 02 3e 4f 12 65 3e 98 89 a3 be c3 32 bf bf
       0.12779894 0.22370265 -0.31940913 -1.4937366
000030 21 9e 0a be 40 e2 09 bf 45 28 a4 bd 9f 77 e4 be
       -0.13536884 -0.53860855 -0.08015493 -0.44622514
000040 4c df cf 3e af 92 6a bf b2 30 dd be d7 b8 47 bf
       0.4060005 -0.9163007 -0.43201214 -0.7801642
000050 1c b5 0d bf 07 71 7a bc 39 8c b4 3d 85 03 31 bf
       -0.55354476 -0.015285737 0.08815808 -0.69145995
000060 e9 83 34 3d b5 22 b7 3d ca e5 3d 3e 03 1a 0b 3e
       0.04407111 0.08942167 0.18544689 0.13584141
000070 bb 2c 0e be 49 59 28 3e f0 c3 df be 35 c0 66 bf
       -0.13884251 0.1644031 -0.43704176 -0.90137035
000080 bd 55 b5 bf 61 91 8b 3d 7c 6b bd be 70 85 c7 3e
       -1.416679 0.06814838 -0.36996067 0.38968992
000090 fb 7f 0c bf 2c 66 b4 be 64 16 d7 be d9 09 67 3e
       -0.5488278 -0.352342 -0.4200927 0.2256235
0000a0 af b0 e0 3c 30 e8 83 bf 9d 18 71 3c 4b 9d a4 3d
       0.027428 -1.0305233 0.014715341 0.08037814
0000b0 85 62 39 3e a7 87 13 3f 8c ba e5 be 2e 19 0a bf
       0.18103988 0.57628864 -0.44868886 -0.5394467
0000c0 f9 aa 20 bf dd 8f 01 3f 35 e1 91 bf 80 01 56 3d
       -0.62760884 0.5061014 -1.1396853 0.052247524
0000d0 00 ec f7 be f7 fe 14 3e 7c b6 8a bf 44 cb ce be
       -0.4842224 0.14550386 -1.083694 -0.40389454
0000e0 72 9c 70 bf 5b cd 96 bf ed 2c 15 be 9e 04 48 bf
       -0.93988717 -1.178142 -0.14567919 -0.78132045
0000f0 36 8e 07 be 43 ac e9 be 78 64 41 3f b7 58 f1 bb
       -0.13237843 -0.45639238 0.7554393 -0.007365312
000100 76 97 a4 3e 63 18 11 3c 16 2b c9 bf 08 ed 12 3f
       0.32146806 0.008855912 -1.5716274 0.5739293
000110 8c 4e 85 be 3c 46 15 be 67 95 08 bd 52 a3 fd bd
       -0.2603649 -0.14577574 -0.033345606 -0.123846665
000120 e8 24 4a be 1a 64 80 3d 12 18 5f bf 31 47 c2 bd
       -0.19740641 0.06269093 -0.87146103 -0.09486235
000130 7f 44 26 bf 77 7c 52 bf 88 de 68 be e8 b9 ad be
       -0.64948267 -0.8222117 -0.22741139 -0.33930898
000140 41 f9 c6 be fa a3 f4 bf b8 b6 a4 3d 8f 4d b1 be
       -0.3886204 -1.9112542 0.08042663 -0.34629485
000150 a2 07 89 bf c7 bb cf be fe 6c 94 bf b6 fa b2 be
       -1.0705454 -0.4057295 -1.1595762 -0.34956902
000160 cc f2 98 3f 3b 10 84 3f 6c 89 c0 bd 37 2d 9f 3e
       1.1949096 1.0317453 -0.09401211 0.31089184
000170 de f1 af 3c 17 b8 0c bf 15 b7 2c bf 87 11 51 be
       0.021477636 -0.549684 -0.6746686 -0.20416842
000180 15 93 15 be 18 a4 a4 3d ae 5d 5e bf da 1e d0 be
       -0.14606889 0.08039111 -0.86861694 -0.40648538
000190 59 09 24 be ab 79 43 bf 78 2b 37 be 16 1d 84 3c
       -0.16019191 -0.76357526 -0.17887676 0.01612715
0001a0 e4 95 c5 3d b0 f9 af bf 73 72 0b bf 2c d4 19 3f
       0.0964773 -1.3748074 -0.5447151 0.60089374
0001b0 a5 23 2f 3f cf 8b 17 be 20 cc 61 bf 4c ba 94 3d
       0.68413764 -0.14799426 -0.88202095 0.07262096
0001c0 18 26 1b 3e 0b c6 63 be 93 b7 c5 bd 62 e7 c9 be
       0.1515125 -0.22243516 -0.09654155 -0.39434344
0001d0 d3 9e dc bd 47 c2 5b bd 65 19 a5 bf 82 23 52 bf
       -0.10772481 -0.053652074 -1.2898375 -0.8208543
0001e0 05 43 a0 bf 13 b5 3c bf 27 c8 a2 be 2f d7 b4 3d
       -1.2520453 -0.737138 -0.3179333 0.088301055
0001f0 25 02 7a be 89 20 3f bf 03 a0 55 bf 6d d4 bc bf
       -0.2441488 -0.7465902 -0.83447284 -1.4752327
000200 cd e7 f3 be c2 54 0b bf 6d aa ac be 42 a5 8e be
       -0.47637787 -0.54426205 -0.33723775 -0.27860457
000210 2a fe 72 be 73 d7 f8 be 86 00 8a bf 7c d0 1a bf
       -0.23729768 -0.48601875 -1.078141 -0.6047437
000220 47 c4 dd bf a1 65 a3 bd 74 2d 90 be 17 a1 f1 be
       -1.7325524 -0.079783686 -0.28159678 -0.47193214
000230 c1 1a 03 3e 57 58 28 bf 46 f6 0a 3e f4 12 38 bf
       0.12803175 -0.65759796 0.13570508 -0.7190392
000240 e6 16 b6 be f6 38 92 3e 4e 0b 35 be 34 07 f1 3d
       -0.35564345 0.28559083 -0.17680094 0.11768952
000250 1e 91 4f be f4 f7 5b bf 2e 3c c3 be d5 a9 88 be
       -0.20270202 -0.8592522 -0.3813185 -0.26692072
000260 b4 17 ef 3b 65 8b 1b be 4b d9 6d bf 0e 20 d0 3e
       0.007296527 -0.15189894 -0.9290969 0.40649456
000270 4f 3b 36 bf 1b 9f 9d bf a0 73 7e bf 3f 56 37 bf
       -0.7118425 -1.231418 -0.9939518 -0.71615976
000280 49 67 70 3e 8f 46 04 bf cd 88 15 be e0 23 b6 3e
       0.234769 -0.51670164 -0.14602967 0.35574245
000290 32 a8 97 3c 41 d4 98 3e e6 62 41 3f 8a cb 31 bf
       0.018512819 0.29849437 0.7554153 -0.694512
0002a0 c9 fd 13 bf eb 80 2e bf d2 aa 33 3e d9 a4 d7 bf
       -0.5780912 -0.68165463 0.17545632 -1.6847183
0002b0 02 fd 40 3e 19 3d 25 bd 15 bd df 3d ca c7 49 bf
       0.18846515 -0.04034147 0.109247364 -0.7882048
0002c0 79 1e c6 bf 4c db 19 bf f4 c2 84 3e 09 07 aa bf
       -1.547805 -0.60100245 0.25929987 -1.3283397
0002d0 a3 48 96 be 3d 83 3b 3f 49 34 95 bf 50 66 da be
       -0.29352292 0.7324713 -1.1656581 -0.42656183
0002e0 08 f5 08 3e 0f fd 64 bf e1 01 93 be ed 8d 29 3f
       0.13374722 -0.89448637 -0.2871237 0.66232187
0002f0 91 ca 86 bf 41 2e 01 bd e5 ef a1 be 33 39 82 be
       -1.0530568 -0.03153825 -0.31628338 -0.25434265
000300 12 14 52 bf 07 b3 8f bf fc 62 19 bd dd a7 0e bf
       -0.82061875 -1.122651 -0.037447914 -0.5572489
000310 95 5f 4b bf c2 f0 04 bf e9 15 63 3e 82 c6 8f bd
       -0.7944272 -0.5192987 0.22176327 -0.07020284
000320 9f 26 81 bf 1a b2 2c 3e a6 9b a7 be af 10 08 bf
       -1.0089911 0.16864815 -0.32735938 -0.5315046
000330 30 9c 65 bf c6 0f 0f c0 29 c4 7d be 04 51 7f bf
       -0.8969145 -2.2353377 -0.2478186 -0.99732995
000340 63 1a 30 bf b7 d7 b7 bf 76 1a 7f bf ca fa b6 3e
       -0.6879026 -1.4362706 -0.9964975 0.35738212
000350 5a d3 cb bd 59 84 e4 be 14 2b 85 bf 24 a6 93 be
       -0.099524215 -0.44632223 -1.0403771 -0.28837693
000360 6d f5 5f bf 64 02 0c bf 7a 13 7f bf d1 a8 e1 be
       -0.87483865 -0.5469115 -0.99639094 -0.4407411
000370 78 f2 52 bf d5 c9 6d bf 94 f0 e5 be 45 e1 dd bf
       -0.8240123 -0.92886096 -0.4491011 -1.7334372
000380 31 57 34 be 42 87 70 bf 76 6a 6f bf 41 17 c7 be
       -0.17611386 -0.9395639 -0.9352182 -0.3888493
000390 7a 51 e2 bd 11 29 6c bf b3 ea 98 3d e0 9a 86 be
       -0.11050697 -0.9225016 0.0746664 -0.26290035
0003a0 16 f0 81 bf 65 4c 80 bf 8d 81 83 bd 87 05 99 be
       -1.0151393 -1.0023314 -0.06421194 -0.2988703
0003b0 b0 fd 2e be 8a 87 21 bf e4 02 a8 bf df 0b 7b bf
       -0.17088962 -0.6309744 -1.3125882 -0.9806499
0003c0 09 e7 eb be c8 f2 71 bf 43 df 39 bf 8b 8d 9c be
       -0.46074703 -0.9451108 -0.72606295 -0.3057674
0003d0 90 97 d8 bd 80 b8 56 3e a1 fa 68 bf a2 33 e4 bf
       -0.10575783 0.20968819 -0.9100743 -1.7828257
0003e0 cb a7 15 3f b9 d9 a7 3d 8f cc 61 be 91 4e 7d be
       0.58459157 0.08195824 -0.22050689 -0.24737002
0003f0 8c a2 a9 bd 99 90 c8 bd 6b e7 56 bf a8 8e 10 3e
       -0.082829565 -0.09793205 -0.83946866 0.14116919

bias f4 [128]
000000 41 94 9c 3d cb 7e 51 be 45 5e 08 3d bc 22 bc 3e
       0.07645465 -0.20458524 0.033293027 0.3674525
000010 ad 17 1a 3e b1 58 83 be 80 78 81 3f 05 7e 98 3f
       0.15048094 -0.25653604 1.0114899 1.1913458
000020 6b fd 9f be 73 86 07 bf 70 02 29 bf 9b 20 9a be
       -0.3124803 -0.5293953 -0.66019344 -0.30103
000030 f4 00 0f bf a7 6f 24 be 19 c6 14 bf eb f2 77 be
       -0.5586083 -0.16058217 -0.58114773 -0.2421376
000040 9e c5 bc be 1d ee 0e bd cf 1a 2e be cd 34 81 3f
       -0.3686952 -0.03489505 -0.17002414 1.0094239
000050 9b 91 8c 3f 6f c7 77 bc e0 97 50 be 3a 65 8f be
       1.0981935 -0.015123232 -0.20370436 -0.28006917
000060 9e 19 9c 3f d6 3d 09 bf b3 28 26 bf c3 bf e7 3e
       1.2195318 -0.5360998 -0.6490585 0.4526349
000070 94 fb fb bc c6 98 0d bf 1b 07 65 be 5c cf 2e bf
       -0.03075961 -0.5531124 -0.22365992 -0.68285155
000080 4a 63 8a ba d6 ee dd be 14 41 9d 3f a9 7a 0b 3f
       -0.0010558155 -0.4334628 1.2285485 0.5448404
000090 06 04 40 3f 17 29 86 be 83 02 96 bd b4 8b b9 3e
       0.7500614 -0.26203224 -0.07324698 0.36239398
0000a0 97 42 2a be 52 f2 12 bf 50 85 2c 3e 72 0e 2c be
       -0.16626965 -0.57401 0.1684773 -0.16802385
0000b0 61 b2 b9 3e 1d 02 6d 3e 64 bd e7 3e 45 e5 a4 be
       0.36268905 0.23145337 0.4526168 -0.3220617
0000c0 e6 fb 83 be 51 64 0c bf a2 f1 0a 3d 29 a4 00 3f
       -0.2577812 -0.5484057 0.033921845 0.5025049
0000d0 fb d5 cb bd 9e 83 ca be e4 21 31 3f a6 3f 12 bf
       -0.09952923 -0.3955354 0.6919234 -0.5712837
0000e0 4e 45 9d be f0 e9 04 3f 7f 6e 17 bf d4 62 84 3f
       -0.30716938 0.5191946 -0.5915298 1.034266
0000f0 a4 74 eb be 17 2a 19 bf 10 12 bc be 90 1e b5 be
       -0.45987427 -0.5982985 -0.3673253 -0.3537488
000100 88 1e c0 3d 69 1f e9 3e 84 47 ea be be c2 1c 3f
       0.093808234 0.45531777 -0.45757687 0.61234653
000110 ba 85 82 be 3c 10 2c be 91 c4 a8 be 25 a5 de 3f
       -0.2549265 -0.16803068 -0.32962468 1.7394148
000120 54 9d 16 3d b8 e6 c9 3d a4 3a b5 bd fb 4e b6 3e
       0.036771134 0.09858459 -0.088490754 0.35607132
000130 82 8a a6 be 81 18 54 be 54 8a 1c bf 1a b5 83 bd
       -0.32527548 -0.20712472 -0.6114857 -0.06431027
000140 c6 9b e0 bd 22 5e 84 be c3 b2 01 be 70 6e 1a 3e
       -0.109672114 -0.25853068 -0.12665848 0.15081191
000150 40 4f bb be b3 20 a7 3d ee e1 94 3d 60 75 69 3d
       -0.365839 0.08160534 0.07269655 0.056996703
000160 c9 8d d2 3e b3 d2 a0 be 69 f5 30 bf 8a 2f ec be
       0.41123798 -0.3141075 -0.69124466 -0.4613002
000170 e9 6e 9f be 33 87 99 3d 75 55 87 bd fd 74 8b be
       -0.31139305 0.0749649 -0.066080965 -0.27237692
000180 9f 41 9e bd 47 7a 13 3e 9d b4 3f bd 13 55 5c 3d
       -0.0772736 0.14402114 -0.046803106 0.05379207
000190 61 13 a4 be 56 33 04 be 72 f7 5f 3d d8 18 81 be
       -0.32046035 -0.12910208 0.05467934 -0.25214267
0001a0 8b ab 7c 3c 39 a9 d8 3e ac 28 a3 be 3e f5 d8 be
       0.015421758 0.42316607 -0.31866968 -0.42374605
0001b0 14 df c7 3c 7b aa 41 3c b6 13 ad 3f 85 f9 11 bf
       0.024398364 0.011820431 1.352164 -0.5702136
0001c0 b5 a1 cb bd 88 1a a4 be f2 95 7b be 4c 02 19 bf
       -0.099429525 -0.32051492 -0.24568918 -0.5976913
0001d0 2e 4a ce 3e 93 89 23 3f 1e 8f dc 3c 4c 45 94 3d
       0.4029097 0.63881797 0.026923712 0.0723978
0001e0 a8 2d 23 3f cc d0 6b 3f c1 df e4 be 61 54 9a be
       0.6374154 0.92115474 -0.4470196 -0.301425
0001f0 11 aa 77 3f df 19 a5 3e 8f 23 3e 3e 9d 4b 90 3e
       0.96743876 0.322463 0.18568252 0.28182688

weight f4 [9, 128]
000000 bd 8e 25 bd 0e 23 4a bd e5 22 9f 3d 06 9e 47 bd
       -0.04041933 -0.049349837 0.077703275 -0.048734687
000010 88 3f 3f bf d9 cc 02 be 3a 9c 2e ba 47 b8 04 3b
       -0.74706316 -0.12773456 -0.0006660853 0.002025144
000020 8f e0 d8 bc 47 38 27 be ef 84 06 bf 61 4f d2 3d
       -0.026474265 -0.16330062 -0.5254659 0.102690466
000030 c6 34 21 3d 86 d7 c7 3b bb e7 3d bb 1e 86 8e bf
       0.03935697 0.0060986904 -0.0028977233 -1.1134679
000040 05 d2 af bd 50 ed 11 bf 74 a4 b7 3c a4 34 15 39
       -0.0858498 -0.57002735 0.022417285 0.00014229357
000050 4f 56 1b 3c 97 01 29 bf a9 1b 1e 3e a3 b7 b6 3c
       0.009481027 -0.6601805 0.15440239 0.022304362
000060 e3 ae 0c 3d 7a dd 9d bd c8 50 86 3d 5a 1a ac be
       0.034346472 -0.07708259 0.065583766 -0.33613855
000070 76 3d 11 be 51 f6 64 3e d3 8e 33 bc 57 c5 16 be
       -0.14183602 0.22359587 -0.010959345 -0.14723717
000080 25 a5 47 be ed 49 18 3b f0 7c b6 3c 3e e7 51 3c
       -0.19496591 0.0023237423 0.022276372 0.01281148
000090 b4 8d 92 be f1 8d 7a bd 4b 37 05 3c 2f 4e d2 be
       -0.28623736 -0.061170522 0.008130859 -0.41075274
0000a0 a1 7d 38 3d 29 80 71 3d 3d e4 d4 bd 9a 76 02 bd
       0.045041684 0.058960114 -0.103950955 -0.03185139
0000b0 0c 0e d5 be ef 17 7a bd f6 a5 88 3d 66 47 1d be
       -0.4161228 -0.06105798 0.066722795 -0.15359268
0000c0 8c c2 c9 3d 8a b6 63 3d b0 43 3c 3e 2e 79 47 bf
       0.0985156 0.055594005 0.18385196 -0.7791928
0000d0 06 1f ac be 6b 0e 9a ba 0b 47 ac 3b 14 b6 f8 be
       -0.3361742 -0.0011753564 0.0052574924 -0.48576415
0000e0 b8 10 21 be 21 05 21 be 72 51 ee bd 7b ba 4a 3c
       -0.15729034 -0.15724613 -0.11636628 0.012373562
0000f0 2a 40 4c 3c 7b d7 2e bf 3d 95 74 3c b0 34 bc bc
       0.01246647 -0.6829755 0.014928159 -0.022974342
000100 b2 b9 72 bd 9e 6a 9f bf c2 37 44 3d dd 13 79 be
       -0.059259124 -1.2454412 0.047904737 -0.24323983
000110 69 49 4a 3d 77 4a 82 3d bc 80 0e bf 81 16 11 bb
       0.049386416 0.06361859 -0.55665183 -0.0022138658
000120 09 a5 a5 3c ba 08 9b bc 70 c2 ef bd d5 85 33 bd
       0.020220296 -0.01892506 -0.11707008 -0.043828804
000130 3b 63 38 bf 79 41 f1 be 5b 3c 49 be bf 74 9a bd
       -0.72026414 -0.47120264 -0.1965193 -0.07541799
000140 74 3f 26 bf 15 31 0f be ab 28 bc 3b 5f af b5 be
       -0.6494057 -0.13983567 0.0057421527 -0.3548536
000150 d6 ce 41 3d 18 20 14 3d c8 5b 77 be b5 cc 47 3c
       0.047316395 0.03616342 -0.24156106 0.012194802
000160 0a d5 f8 bd 20 14 07 bb 25 87 2b bf e6 73 8c 3c
       -0.12150009 -0.002061136 -0.6700309 0.017145108
000170 ec 34 11 3d 17 af ee be 83 3e 96 be 6e 15 51 bf
       0.03545086 -0.46617958 -0.29344568 -0.81673324
000180 7a e2 54 be 9c d8 3a bc 53 45 27 bc 2f 35 80 3c
       -0.20789519 -0.011404183 -0.010209399 0.01565036
000190 d3 52 c7 bd 2b 83 68 3d ad b6 16 3b 8b 8b 3c bc
       -0.09732594 0.056765717 0.0022997067 -0.011507879
0001a0 c3 fb 64 bd 2c ba 34 3d 1f fc 4a be c3 3a dd be
       -0.05590416 0.04412286 -0.19822739 -0.43208894
0001b0 f4 68 4f 3a d9 fa 2c be 33 b0 82 bb 77 ba 34 bf
       0.00079120626 -0.16892566 -0.0039882897 -0.7059702
0001c0 b2 83 41 bf df 4e 43 3e 7c 90 a4 be 39 d9 3e bc
       -0.75591576 0.19073056 -0.32141483 -0.01164847
0001d0 77 99 10 3c b1 fa fe ba 3c 84 4f 3c e3 f3 4f 3c
       0.008825651 -0.0019453374 0.0126658045 0.0126924245
0001e0 a2 29 71 bc 81 71 8b 3d db 71 73 bf e2 e9 37 bd
       -0.014719399 0.068087585 -0.95095605 -0.044900782
0001f0 00 d9 83 c0 5a 5a 82 be 2a 4a 01 c0 05 ce 0b 3e
       -4.1202393 -0.25459558 -2.0201516 0.13652809
000200 81 29 ea bd 7b c8 aa bd af 13 87 bd 51 ec a8 bc
       -0.114336975 -0.0833902 -0.06595551 -0.020620497
000210 14 6d f6 be 30 51 92 bd cc c0 72 c0 05 23 22 3b
       -0.48130095 -0.071443915 -3.7930174 0.0024740112
000220 76 ef fc 3c c2 25 a3 be 11 45 c4 3e 47 41 78 be
       0.030875903 -0.31864744 0.38333943 -0.24243651
000230 b0 ad 05 3e c2 f7 10 bd 05 f7 4a bf dc 68 0b 3d
       0.13054538 -0.03539253 -0.7928317 0.03403555
000240 36 bd 13 bf 95 e1 60 be b9 5f 9a 3d 3c 1e 53 3b
       -0.5771059 -0.21961053 0.07537789 0.0032214066
000250 29 3e 5d bb 89 70 d7 be 58 d7 1a 3d 5c 75 f1 3d
       -0.0033758974 -0.42078045 0.037803024 0.11789963
000260 12 fc 9b 3a 3e 02 10 bf 02 21 50 bd 8f 85 cf be
       0.0011900684 -0.5625342 -0.05081273 -0.40531585
000270 5a 85 35 bd 6b f4 18 3e c0 e9 b3 bc 62 fe ae 3d
       -0.044316627 0.14936988 -0.021962047 0.085446134
000280 01 26 9b 3d 5d 5f 08 bf a4 0f 30 ba dc 0d 9d bd
       0.07575608 -0.5327051 -0.0006716198 -0.07668659
000290 30 00 bf be c3 f0 46 3e c2 cb b3 3d 9a b2 0a be
       -0.3730483 0.19427781 0.08779098 -0.13544694
0002a0 ad 97 01 be 17 f6 4f 3d a5 6a 16 bf 6b 3b 2c be
       -0.12655516 0.0507718 -0.58756477 -0.16819541
0002b0 e4 75 62 3c 41 18 4f bd 8b 03 57 bd 6e ad fa be
       0.013822053 -0.05056024 -0.052493613 -0.4896044
0002c0 63 06 03 3e bb a5 7c be da 85 80 3d f8 21 71 3d
       0.12795405 -0.24672596 0.0627553 0.058870286
0002d0 02 66 51 3d 8f 03 c5 3b d3 60 2a be 3f 7b ae be
       0.051122673 0.006012387 -0.16638498 -0.34078404
0002e0 25 01 e7 3d 6e ba 95 bc 59 0d 26 3d ff f2 70 bb
       0.11279515 -0.018277373 0.040540073 -0.003676593
0002f0 4d 02 e8 bd f0 bb c6 bc f2 5b 6a 3c c1 c2 19 be
       -0.11328564 -0.024259537 0.014304148 -0.15015699
000300 a2 d8 92 be 75 04 18 3a ed 17 f6 3d df 02 0e bd
       -0.28680903 0.0005799004 0.12016282 -0.034670707
000310 35 88 35 bb fa cd 6b bd b7 b5 cf be 64 fb b0 3b
       -0.0027699594 -0.05756948 -0.40568325 0.005401062
000320 5a 64 42 bd a1 9e 03 be a4 e6 22 bf 27 e1 80 3d
       -0.047458984 -0.12853481 -0.6363318 0.062929444
000330 de 0b f4 bb b5 39 53 bd 6e d7 9e 3c 4e ac 5f be
       -0.0074477037 -0.051568706 0.019389834 -0.21843073
000340 53 83 d1 bb f5 16 cd bb 25 f1 78 be 73 d5 c3 bc
       -0.006393829 -0.00625884 -0.2431074 -0.023905491
000350 85 97 09 3d 91 e6 92 3d e6 73 ce be e5 f5 42 3d
       0.033591766 0.07172883 -0.40322798 0.047597785
000360 9f 0d a0 bc 99 56 2a bf 38 fe 94 be a2 df ae be
       -0.019537745 -0.6653839 -0.29100204 -0.34154993
000370 9e 89 28 be b8 c7 2d 3d 05 e2 85 3d 1f 02 69 bf
       -0.16458747 0.042426795 0.065372504 -0.9101886
000380 c6 d0 05 bb f9 f0 c1 be 40 f4 ff be 5b 73 c7 be
       -0.0020418628 -0.3787916 -0.49991035 -0.38955197
000390 11 e7 2e 3e 63 9b 1b bd 0e 1a 1e be 46 d7 7d bf
       0.17080332 -0.037989985 -0.15439627 -0.99156606
0003a0 95 5c bc 3d e3 a6 38 bf 96 20 4b bf 8f 09 2b be
       0.09197346 -0.7212965 -0.793466 -0.16702865
0003b0 86 84 c2 be cc f6 c2 bd 08 4c 09 3a d8 0b 43 bc
       -0.37991732 -0.09519729 0.0005237465 -0.011904679
0003c0 6f 44 04 bf 06 3f 64 3e a1 d8 07 bf c5 16 d7 be
       -0.5166692 0.22289667 -0.53064924 -0.4200956
0003d0 5b 0a 8d bd 10 3b be bd 61 13 47 be 68 e4 77 3c
       -0.06886741 -0.09288609 -0.19440986 0.01513014
0003e0 53 54 c8 3d 52 4f 9c 3d d2 15 eb 3d 4a 6b 45 3e
       0.097817086 0.07632317 0.11478771 0.19279209
0003f0 90 b2 0d 3c 3b 82 bd be 80 0f f3 bb f8 3d 21 be
       0.00864853 -0.3701342 -0.007417619 -0.15746295

bias f4 [9]
000000 0f 70 3d 3f 1e 80 2f 3f f4 03 23 3f 8c 63 3c 3f
       0.7399911 0.68554866 0.63677907 0.73589396
000010 5d 05 6b 3f 2f b5 24 3f f5 0c 45 3f 0d 20 2b 3f
       0.9180506 0.64338964 0.76972896 0.6684578
000020 cc a7 50 3f
       0.8150604
